res/compas/2023_05_24_15_33_18_783287/b1.npy (npy, 528 bytes, 1 tensors)

array f8 [50]
0.0005593501846306026 0.019991200417280197 0.076239675283432 -6.775239307899028e-05 -0.0008988178451545537 -0.0006808624020777643 0.09103997051715851 -0.005251501686871052
0.0002567534102126956 0.1510506570339203 0.004518179222941399 -0.034100111573934555 -0.0001936331536853686 -0.060690008103847504 0.3646329343318939 0.02266821078956127
-0.1272725760936737 -0.011442664079368114 -0.009847202338278294 0.02751295268535614 -5.3098046919330955e-05 0.0006140789482742548 0.019092990085482597 0.0029804501682519913
-0.03771607577800751 -0.8412045836448669 0.0049551110714674 0.0003599523624870926 0.0025868727825582027 0.0055143581703305244 -0.10105735808610916 -0.00010017244494520128
0.004401002079248428 0.045528337359428406 -0.0005762238288298249 -0.09316831827163696 -0.02008793316781521 0.009296320378780365 0.13074363768100739 0.07818297296762466
0.0011895977659150958 -4.965460902894847e-05 -0.00045148347271606326 0.17359907925128937 -7.434695726260543e-05 0.004733280278742313 0.0028640294913202524 -0.06387868523597717
-0.009233606979250908 0.002797120250761509
00000000: 0000 0060 2b54 423f 0000 00c0 9278 943f
00000010: 0000 0080 7184 b33f 0000 0040 c9c2 11bf
00000020: 0000 00a0 d473 4dbf 0000 00e0 7c4f 46bf
00000030: 0000 0040 654e b73f 0000 0040 9982 75bf
00000040: 0000 0080 9bd3 303f 0000 00c0 a055 c33f
00000050: 0000 0080 a781 723f 0000 00e0 9175 a1bf
00000060: 0000 0020 4061 29bf 0000 00c0 c212 afbf
00000070: 0000 0060 2556 d73f 0000 00e0 5536 973f
00000080: 0000 00c0 774a c0bf 0000 0060 406f 87bf
00000090: 0000 0020 c52a 84bf 0000 0000 5b2c 9c3f
000000a0: 0000 0000 b3d6 0bbf 0000 0080 441f 443f
000000b0: 0000 00e0 1c8d 933f 0000 0000 756a 683f
000000c0: 0000 0080 854f a3bf 0000 00e0 25eb eabf
000000d0: 0000 0080 cf4b 743f 0000 00a0 ff96 373f
000000e0: 0000 00c0 1031 653f 0000 0040 3996 763f
000000f0: 0000 0020 e5de b9bf 0000 0080 7542 1abf
00000100: 0000 0000 c906 723f 0000 0080 7d4f a73f
00000110: 0000 0040 b7e1 42bf 0000 0000 e1d9 b7bf
00000120: 0000 0060 ee91 94bf 0000 0000 f309 833f
00000130: 0000 0020 35bc c03f 0000 00a0 cc03 b43f
00000140: 0000 00e0 887d 533f 0000 0060 8708 0abf
00000150: 0000 00c0 a296 3dbf 0000 00a0 7e38 c63f
00000160: 0000 0000 577d 13bf 0000 0040 3463 733f
00000170: 0000 0020 4e76 673f 0000 0080 5a5a b0bf
00000180: 0000 00c0 11e9 82bf 0000 0080 fce9 663f
