res/compas/2023_05_24_15_33_18_783287/w1.npy (npy, 16928 bytes, 1 tensors)

array f4 [50, 84]
0	0xb554be07	-7.925268e-07
1	0x3144e4cc	2.865181e-09
2	0xb7213542	-9.608748e-06
3	0xb7073837	-8.059716e-06
4	0xb7aaa2fe	-2.0341478e-05
5	0xb6f00db8	-7.1541544e-06
6	0x3750c99c	1.2444707e-05
7	0x376f3cb5	1.4259645e-05
8	0xb54bba3f	-7.5894417e-07
9	0xb6ca776b	-6.033971e-06
10	0x375573f6	1.2722789e-05
11	0x37a39cfa	1.9504212e-05
12	0xb76ebe06	-1.4230149e-05
13	0x36ecdf10	7.059316e-06
14	0x3728500e	1.00322195e-05
15	0xadc9d6d5	-2.2946459e-11
16	0xb7853691	-1.5880245e-05
17	0x36fd7e5b	7.5546973e-06
18	0xb7939cb3	-1.7596734e-05
19	0xb6bcbbd2	-5.6247018e-06
20	0x36a3404a	4.865263e-06
21	0xb76a036f	-1.3948286e-05
22	0xae7a8ca2	-5.6968326e-11
23	0xb73ca612	-1.12443395e-05
24	0xb648062d	-2.9805917e-06
25	0xb75299d1	-1.2552789e-05
26	0x37114c33	8.660415e-06
27	0xb7194998	-9.1366455e-06
28	0xb76bca66	-1.4054216e-05
29	0x35826232	9.714333e-07
30	0x378c1b19	1.6701919e-05
31	0x36cd61b0	6.1208484e-06
32	0xb7a0edae	-1.9184165e-05
33	0x37039a68	7.844159e-06
34	0xb68722d4	-4.027368e-06
35	0x37883a0b	1.6239492e-05
36	0x2ce3e2a2	6.4768893e-12
37	0x37346d5a	1.0754296e-05
38	0x3743a13c	1.1660446e-05
39	0x37a94fb9	2.0183494e-05
40	0x37194ca7	9.137358e-06
41	0xb743a6a5	-1.1661706e-05
42	0x3733f859	1.0727054e-05
43	0xafc062ce	-3.4994802e-10
44	0xb611c9f9	-2.1724247e-06
45	0xb69a8e8e	-4.606153e-06
46	0x3772c796	1.4470794e-05
47	0xb747cd13	-1.1909072e-05
48	0x3757dcbd	1.2866393e-05
49	0xb7451622	-1.1747268e-05
50	0xaf5c61e6	-2.0043664e-10
51	0x379de445	1.8822155e-05
52	0xb791fa36	-1.740186e-05
53	0x375c86c8	1.3144403e-05
54	0xb768c7dc	-1.3874811e-05
55	0x3737fdbd	1.0966728e-05
56	0x368bab32	4.1624526e-06
57	0x34edfe13	4.4329553e-07
58	0x3772f03e	1.448026e-05
59	0x376b1ba0	1.40135235e-05
60	0x371fa7e3	9.516228e-06
61	0xb77e8d6c	-1.5172507e-05
62	0xb71dbddf	-9.402137e-06
63	0x3547bf7f	7.441194e-07
64	0x351ae8ce	5.7708246e-07
65	0x379cc168	1.8686711e-05
66	0xb732cd87	-1.065748e-05
67	0x377b3ae2	1.4974476e-05
68	0xb7933eaf	-1.7552955e-05
69	0x371e02af	9.418159e-06
70	0x37784b1c	1.479944e-05
71	0x354da8e7	7.6614236e-07
72	0x3799f02f	1.8350866e-05
73	0xb7538a3d	-1.2608766e-05
74	0x37815734	1.5418605e-05
75	0xb770448b	-1.4321074e-05
76	0xb607ab34	-2.021622e-06
77	0xb6935f4d	-4.392036e-06
78	0xb58a206e	-1.029124e-06
79	0x36ab6d93	5.1089532e-06
80	0x37716287	1.438766e-05
81	0xb6f9932b	-7.437911e-06
82	0x36000573	1.9076658e-06
83	0xb7928630	-1.7467042e-05
84	0x3d02d647	0.031942632
85	0xbcb855f9	-0.022501932
86	0xbbd953bf	-0.0066322978
87	0xbccfc2ee	-0.025361504
88	0xbce27321	-0.027642788
89	0xbcd6c0f1	-0.026215049
90	0x3b605688	0.0034231264
91	0x3c05205c	0.008125391
92	0xbbaa2b22	-0.00519313
93	0xba88b841	-0.0010430889
94	0x3d2b87f0	0.041877687
95	0x3d1e359d	0.03862535
96	0xbc355747	-0.011068172
97	0xbbbf3f9c	-0.0058364403
98	0x3d02df23	0.03195108
99	0xbd2d293c	-0.042275652
100	0xbbeb6b4b	-0.007184421
101	0xbcf31120	-0.029671252
102	0xbba0efe3	-0.004911409
103	0xbd1ee3ec	-0.038791582
104	0x3d0adabc	0.033900008
105	0xbd0906e6	-0.033453844
106	0xbc9556d5	-0.018229881
107	0x3c6b92e0	0.014378279
108	0xbd0460c9	-0.032318864
109	0xbd613a6d	-0.05498736
110	0x3cfce973	0.030873036
111	0xbcb16d5e	-0.021658596
112	0xbcad88e5	-0.02118344
113	0xbc6a874d	-0.014314485
114	0x3cf920e0	0.030411184
115	0xbcb3299d	-0.021870429
116	0xbd0ef6a6	-0.03490319
117	0xbc5626eb	-0.013070802
118	0x3b7c15d2	0.0038465154
119	0x3cda39a9	0.026638823
120	0xbbec2b47	-0.0072073075
121	0x3c5a0707	0.0133073395
122	0x3cf4d872	0.029888365
123	0x3cf5500d	0.029945398
124	0x3c81448e	0.01577976
125	0xbc845e75	-0.016158322
126	0x3cf1cfa0	0.029517949
127	0xbbf45456	-0.0074563427
128	0x3c0f8233	0.008759069
129	0x3cc6bef6	0.02426098
130	0x3cbdd8c1	0.023174645
131	0xbc910042	-0.017700318
132	0x3cf64751	0.030063303
133	0xbce016d0	-0.027354628
134	0x3cb94cbc	0.022619598
135	0x3cad54f1	0.021158667
136	0xbc10833a	-0.008820349
137	0x3d3c131a	0.045916654
138	0xbce4409f	-0.027862845
139	0x3ce4a44e	0.027910378
140	0x3935f399	0.00017352252
141	0xbc6f37c9	-0.014600703
142	0x3c850a82	0.016240362
143	0x3c914742	0.017734174
144	0x3caf97b1	0.021434637
145	0xbc76a821	-0.0150547335
146	0xbcc0b1f0	-0.023522347
147	0x3c40d5ae	0.011769695
148	0x3ca335e2	0.019923154
149	0xbc21741a	-0.009854341
150	0xbd20cb16	-0.039256178
151	0x3d24f276	0.04027029
152	0xbd154236	-0.036440097
153	0x3c739c83	0.014868858
154	0x3c05c986	0.008165723
155	0x3cce82b7	0.025208814
156	0x3c003e6a	0.007827381
157	0xbcd622dc	-0.02613967
158	0x3d53eb64	0.051738158
159	0xbd0cb2eb	-0.034350317
160	0x3b9b5f55	0.004741589
161	0x39e88cfe	0.00044355536
162	0xbca6e6b1	-0.020373674
163	0xbba8cdfb	-0.005151508
164	0x3b4deef9	0.0031422956
165	0xbc7b0f66	-0.0153234955
166	0x3bd81cb7	0.00659522
167	0x3c2ebe02	0.010665419
168	0xbd1549e9	-0.03644744
169	0xbb381abe	-0.0028092111
170	0x3b90567a	0.00440484
171	0xbcd2fe45	-0.02575601
172	0xbd9f9c2a	-0.07793458
173	0x3c067044	0.008205477
174	0xbcf30462	-0.029665176
175	0x3d212b72	0.039348073
176	0x3b11ab1e	0.0022227238
177	0xbcb2c90a	-0.021824379
178	0x3cb40d09	0.021978872
179	0x3d0a935e	0.033831947
180	0xbccd2b70	-0.025045127
181	0x3d5f4e1b	0.054517847
182	0x3c14911b	0.009067799
183	0x3a908139	0.001102484
184	0x3b9b39f0	0.0047371313
185	0xbcef65b6	-0.029223304
186	0xbcc387b6	-0.023868423
187	0x3d23c58d	0.03998332
188	0xbcb85f72	-0.02250645
189	0xbd449adb	-0.047999244
190	0x39bf324b	0.0003646783
191	0xbb910da0	-0.004426673
192	0xbcf69bc7	-0.030103577
193	0xbd7eaf1c	-0.062178716
194	0xbbd58a3a	-0.006516722
195	0x3c6d360e	0.01447822
196	0xbd6eb232	-0.05827541
197	0x3acde82f	0.0015709455
198	0x3c1e4ff6	0.009662619
199	0x3cf76e06	0.03020383
200	0xbcc54799	-0.024081992
201	0x3d421253	0.047380757
202	0xbcb16c1a	-0.021657992
203	0x3d3edf4a	0.046599664
204	0x3a5154c0	0.0007985346
205	0x3ce82186	0.028336298
206	0x3bfbcabb	0.0076840795
207	0x3c612a20	0.013742954
208	0xbd8bc3eb	-0.06824478
209	0x3bb5f92f	0.0055533866
210	0xbc943a55	-0.018094221
211	0xbb11223f	-0.0022145656
212	0xbbdb41c4	-0.0066911895
213	0x3b925add	0.004466398
214	0x3ce5b02d	0.028038109
215	0xbcda32e1	-0.02663559
216	0x3c99300e	0.018699672
217	0x3c131f41	0.0089796195
218	0x3b64e878	0.0034928601
219	0xbce9493b	-0.028477302
220	0xbba9efc0	-0.005186051
221	0x3c0cf06c	0.008602243
222	0xbd4834ec	-0.048878595
223	0x3d6d3bb3	0.05791826
224	0xbc906f91	-0.017631324
225	0xbb353fdd	-0.0027656474
226	0x3c09faa0	0.00842157
227	0x3d0b79b8	0.034051627
228	0xbcf7fb01	-0.030271055
229	0x3c73eb42	0.014887633
230	0x3cb11d7a	0.0216205
231	0xbbeae785	-0.0071687126
232	0x3b011557	0.0019696557
233	0xbcb0aa13	-0.021565473
234	0xbc6a8fbc	-0.0143164955
235	0x3bfdc638	0.007744577
236	0xbc7c89fa	-0.015413756
237	0xbc21590e	-0.009847892
238	0x3d09e355	0.033664066
239	0x3b027aee	0.0019909698
240	0xbcd90ec0	-0.026496291
241	0x3ce7b078	0.028282389
242	0x3b23ed54	0.0025013285
243	0xbcd4eb20	-0.025991023
244	0x396e1030	0.00022703479
245	0x3d009e88	0.031401187
246	0x3ab6ab72	0.0013936593
247	0x3bcff8b1	0.006346785
248	0xbca6bf6b	-0.020354947
249	0xbc8607ae	-0.016361084
250	0xbc179dc1	-0.00925392
251	0xbce20268	-0.027589038
252	0x3552ea4b	7.857204e-07
253	0xb20a5c91	-8.053704e-09
254	0x350def94	5.2875225e-07
255	0x34f5dee0	4.579697e-07
