res/compas/2023_05_24_15_33_18_783287/w2.npy (npy, 528 bytes, 1 tensors)

array f4 [2, 50]
0	0x3b0ff5ee	0.0021966654
1	0xbd22d65f	-0.03975522
2	0x3d967c97	0.073479824
3	0x3d45b271	0.048265878
4	0x3c9dc358	0.019258186
5	0x3d348aca	0.044077672
6	0xbc156a5e	-0.009119598
7	0xbd75b310	-0.05998522
8	0x3dd575c6	0.10422854
9	0xbdc410eb	-0.09573539
10	0x3b470d7a	0.0030373023
11	0xbcd97472	-0.026544783
12	0xbcf7e98f	-0.030262737
13	0xbc881cda	-0.01661532
14	0x3e0ecc8d	0.13945217
15	0xbdd3bb52	-0.10338463
16	0x3d68f14d	0.056870747
17	0xbc73d56e	-0.014882429
18	0xbdb3c7ac	-0.08778319
19	0x3c5016be	0.012700735
20	0xbd8b9da1	-0.06817175
21	0x3dde1b84	0.10845092
22	0x3d2ec8d2	0.042671986
23	0x3d5baaca	0.053629674
24	0xbd70c420	-0.05878079
25	0xbea40a4d	-0.3203911
26	0x3b94319a	0.0045225145
27	0xbd318217	-0.043336954
28	0xbd0bca81	-0.03412867
29	0xbcc1281a	-0.023578692
30	0x3cdb85f0	0.026797265
31	0xbc9034de	-0.017603334
32	0xbcd1abf4	-0.025594689
33	0xbdb2bd24	-0.08727482
34	0x3c5ea36d	0.013588768
35	0xbd4929fc	-0.049112305
36	0xbd9ac9bf	-0.07558011
37	0x3d0ba1e7	0.03408995
38	0xbbd42b64	-0.006474899
39	0xbdea32e5	-0.114354886
40	0xbdc0ee30	-0.09420431
41	0xbd023c83	-0.03179599
42	0x3de663a1	0.112494715
43	0x3dfceebc	0.123502225
44	0xbd57ff0a	-0.05273346
45	0x3cccf7eb	0.02502056
46	0xbd2ab5f3	-0.041677427
47	0x3d582ad4	0.05277522
48	0xbccd7213	-0.025078809
49	0xbcef256b	-0.029192647
50	0x3b253647	0.0025209354
51	0xbdcc76be	-0.09983586
52	0x3dd791be	0.10525845
53	0x3d45771f	0.048209306
54	0x3c9a6837	0.018848522
55	0x3d330a36	0.04371091
56	0x3d0ba84e	0.034096055
57	0xbd7df043	-0.06199671
58	0x3dd5e154	0.104433686
59	0xbd70ce43	-0.058790457
60	0xbca82541	-0.020525577
61	0xbd0064ca	-0.03134612
62	0xbcf94cbe	-0.030432101
63	0x3bf21f2a	0.007388969
64	0xbe2bcd0e	-0.16777441
65	0xbdbf7f07	-0.093504004
66	0xbd0fa5dd	-0.03507029
67	0xbc73bcb4	-0.014876533
68	0xbdb2cb3a	-0.08730169
69	0x3c90ada9	0.017660933
70	0xbd8a7fab	-0.06762632
71	0x3dde3716	0.108503506
72	0x3d6d4009	0.057922397
73	0x3d65db1f	0.056117173
74	0xbd8585c8	-0.065196574
75	0x3ed08f59	0.40734366
76	0x3b4d4214	0.0031319903
77	0xbd319e7e	-0.04336404
78	0xbd0be58c	-0.03415446
79	0xbca1e995	-0.0197647
80	0xbbd63f46	-0.0065383045
81	0xbc8fbd80	-0.017546415
82	0xbd17d88d	-0.037071753
83	0xbd932ab1	-0.07185877
84	0x3c5c9b08	0.013464697
85	0x3d0e1cee	0.03469556
86	0xbdaaaaab	-0.083333336
87	0x3e2258da	0.15854207
88	0x3d1f7440	0.038929224
89	0xbdd3bb05	-0.103384055
90	0xbdbee19a	-0.09320374
91	0xbd026346	-0.031832956
92	0x3de62661	0.11237789
93	0x3d5d9f3e	0.054106943
94	0xbd5560de	-0.052094333
95	0x3cd29f2e	0.025710668
96	0xbd261ff2	-0.04055781
97	0x3d2800c8	0.04101637
98	0x3ae39c7a	0.0017365359
99	0x3c7d265d	0.015451041
