models/heloc/2023_04_29_13_22_05_119738/w1.npy (npy, 103488 bytes, 1 tensors)

array f4 [16, 1615]
0	0xbbe3e74e	-0.006955064
1	0xbc001e45	-0.007819717
2	0xbc0585f0	-0.008149609
3	0xbbefd0b3	-0.00731858
4	0x3bc7514c	0.0060826894
5	0x3bbb009f	0.005706861
6	0x3be48189	0.0069734496
7	0x3be68fc3	0.0070361807
8	0x3bea8817	0.0071573365
9	0x3bf66737	0.0075196284
10	0x3bebba95	0.007193873
11	0x3bff9008	0.0077991523
12	0x3bf79d65	0.0075566047
13	0x3c04b798	0.008100413
14	0x3ae19b2e	0.0017212385
15	0xbbf6aa32	-0.007527613
16	0xbbe75054	-0.0070591364
17	0xbbda52e6	-0.0066627143
18	0xbbb49800	-0.005511284
19	0xbb8557ff	-0.004069328
20	0x3c754066	0.014968967
21	0x3cbe20e7	0.023209048
22	0x3a02464e	0.00049695827
23	0x3bcc61bb	0.0062372363
24	0x3bc879cf	0.0061180363
25	0x3bcbaff4	0.0062160436
26	0x3bbdfc88	0.0057979263
27	0x3bd82182	0.0065957913
28	0x3bbf26bf	0.0058334763
29	0x3b919738	0.0044430755
30	0x3bb48474	0.0055089537
31	0x3ba92858	0.00516228
32	0x3bce34df	0.006292924
33	0x3b9bb57c	0.004751859
34	0x3bb9c3e1	0.0056691025
35	0xbbb984c3	-0.0056615784
36	0xbbb790cb	-0.0056019775
37	0xbbca0dae	-0.0061661815
38	0x3bf31d08	0.0074192323
39	0x3bdc0464	0.0067143906
40	0x3bd315fa	0.006441829
41	0xbbb0c9e0	-0.005395159
42	0xbc3ed47d	-0.011647341
43	0x3baff481	0.0053697233
44	0xbc200a3b	-0.009768064
45	0x3bc25005	0.005929949
46	0xbbf050cc	-0.0073338505
47	0xbbbb4481	-0.0057149534
48	0x3be8181e	0.007082953
49	0xbb82c9e5	-0.003991353
50	0xbbb5095e	-0.0055247983
51	0xbbc64c89	-0.006051604
52	0xbbe63ff7	-0.007026668
53	0xbbe544c2	-0.006996722
54	0xbbe6adc6	-0.0070397584
55	0xbbc4172c	-0.0059842076
56	0xbbd41b67	-0.006472993
57	0xbbd47a9a	-0.006484342
58	0xbbca250d	-0.0061689676
59	0x3c09a899	0.008402013
60	0x3bc590dc	0.0060292315
61	0x3bc9aae7	0.0061544064
62	0x3bd3a128	0.0064584203
63	0x3bd1a774	0.006398136
64	0x3bd29cbe	0.0064273765
65	0x3bcd83e2	0.006271825
66	0x3bcd4a5e	0.006264969
67	0x3bb9639b	0.005657626
68	0x3bc77f7b	0.006088195
69	0x3bc8fdf6	0.00613379
70	0xbbe99241	-0.0071280305
71	0xbbc9f2a0	-0.0061629564
72	0xbbb8cc79	-0.0056396094
73	0xbbdace2f	-0.006677411
74	0xbbc8c159	-0.0061265645
75	0xbbe032e3	-0.0068420037
76	0xbbd4916d	-0.0064870627
77	0xbbf58799	-0.007492971
78	0x3bb2057f	0.005432784
79	0x3bcd9d25	0.0062748366
80	0x3be7d375	0.007074768
81	0x3bda1178	0.0066549145
82	0x3bc9d6cf	0.0061596404
83	0x3bcc3fff	0.006233215
84	0x3be343bc	0.006935565
85	0x3be20ff5	0.006898875
86	0x3be53599	0.0069949147
87	0x3be10087	0.006866518
88	0x3c0e5b4b	0.008688758
89	0xbbc85d0d	-0.006114608
90	0xbbe2661b	-0.0069091446
91	0x3bbec6e9	0.005822052
92	0xbbd8a8f2	-0.0066119367
93	0x3beb25b4	0.0071761254
94	0xbba30a84	-0.004975619
95	0xbc03ce7a	-0.008044833
96	0x3bb8bc44	0.0056376774
97	0xbc08f76b	-0.00835977
98	0xbc07349f	-0.008252292
99	0xbbdb5768	-0.0066937692
100	0xbbe12817	-0.006871234
101	0xbbe8ccd4	-0.0071044955
102	0x3ae0ee8d	0.0017160937
103	0x3b94331f	0.0045226957
104	0xbbdd1cc8	-0.0067478158
105	0x3bf7eb02	0.007565857
106	0x3be8cedc	0.0071047377
107	0x3bd67e7e	0.0065458408
108	0x3bf77626	0.007551926
109	0x3bd6404b	0.006538426
110	0xbbb27f00	-0.0054472685
111	0xbbc31c11	-0.0059542735
112	0xbbade65f	-0.0053070034
113	0xbbc4da3f	-0.0060074623
114	0xbbdeb264	-0.006796168
115	0xbbd7f490	-0.0065904334
116	0xbbcd365f	-0.006262585
117	0xbbce66d4	-0.006298879
118	0xbbaa610f	-0.0051995586
119	0xbb295b5a	-0.0025841803
120	0x3bdfd1ed	0.006830445
121	0x3bab6db0	0.0052315816
122	0x3bb875b7	0.005629267
123	0x3be29483	0.0069146766
124	0x3c0bc90a	0.008531818
125	0x3bf17144	0.0073682386
126	0x3c918382	0.017762903
127	0x3bdd19f1	0.006747477
128	0xbbde9515	-0.0067926743
129	0xbc21e35e	-0.009880869
130	0xbc200614	-0.009767074
131	0xbb5035d2	-0.003177036
132	0xbb2a7353	-0.002600868
133	0xbbc608fb	-0.006043551
134	0xbbd8ec4a	-0.0066199647
135	0xbbd7c229	-0.006584425
136	0x3b1cfe76	0.0023955381
137	0x3b7976e3	0.0038065247
138	0x3aec805d	0.0018043626
139	0x3b786013	0.0037899062
140	0x3b9fb6ad	0.0048740716
141	0x3bbceeca	0.0057657706
142	0x3bbdf9c0	0.005797595
143	0x3bdc97f1	0.00673198
144	0x3bd6bceb	0.0065532825
145	0x3be6e270	0.0070460364
146	0x3b20a187	0.002451034
147	0xbb27ec47	-0.002562301
148	0x3c838053	0.0160524
149	0xbbce3487	-0.006292883
150	0xbbde2781	-0.0067796116
151	0xbb4bd3bd	-0.0031101548
152	0x3b80145c	0.003908677
153	0x3b6cdf47	0.0036143826
154	0xbc2f3c92	-0.010695593
155	0x3bd0c7fd	0.0063714967
156	0x3bb6d6f9	0.005579826
157	0xbbe28943	-0.0069133355
158	0x3bf0896a	0.0073406
159	0xbbb2c82e	-0.005455992
160	0xbb7c02b4	-0.003845376
161	0xbb6d1471	-0.0036175514
162	0xbb995002	-0.004678727
163	0xbbbfd28d	-0.005853957
164	0x3ba75dd4	0.0051076207
165	0x3b9f207b	0.004856167
166	0x3bd20431	0.006409191
167	0xbbe3867a	-0.006943521
168	0x3bbc9585	0.005755129
169	0x3ba08643	0.0048988177
170	0x3ba41892	0.005007812
171	0x3bc438f3	0.005988234
172	0x3bbdf134	0.005796576
173	0x3ba6c334	0.005089188
174	0x3ba34c39	0.0049834517
175	0xbb94bfba	-0.004539457
176	0x3c0842c5	0.0083167
177	0x3c11460b	0.008866797
178	0xbbdf50ae	-0.0068150377
179	0xbbb4d7c5	-0.005518886
180	0x3bb42675	0.0054977485
181	0xbbebb46c	-0.007193139
182	0x3bcb51f1	0.0062048365
183	0x3bacd972	0.005274945
184	0xbbaaeff3	-0.0052165925
185	0x3b97d2f3	0.0046333014
186	0xbbe8e94f	-0.0071078907
187	0xbbc670dd	-0.006055935
188	0xbbe747f0	-0.007058136
189	0x3bad205d	0.005283399
190	0x3bb41d6c	0.0054966714
191	0x3bd88854	0.0066080485
192	0x3bd2cda9	0.006433208
193	0x3bd5408d	0.006507939
194	0x3b87b31e	0.0041412255
195	0x3bcd3b3a	0.006263164
196	0x3becf07c	0.0072308164
197	0x3be747f3	0.0070581376
198	0xbbe04619	-0.006844294
199	0x3bfd3e9b	0.0077284104
200	0xbb9f47eb	-0.004860868
201	0xbb8e0190	-0.0043336824
202	0xbbc36b7b	-0.0059637404
203	0xbc52087a	-0.012819404
204	0xbc3bef32	-0.011470603
205	0x3bdf53ec	0.006815424
206	0x3bba9eae	0.0056951856
207	0x3bdd32d0	0.006750442
208	0x3c01c57e	0.007920621
209	0x3c00f851	0.007871703
210	0x3c0285fe	0.007966517
211	0x3beb7559	0.00718562
212	0x3bba2fa8	0.0056819506
213	0x3bf7be1b	0.007560504
214	0x3baabc7b	0.005210457
215	0x3be57e81	0.007003606
216	0x3b4f7cfa	0.0031660185
217	0xbbd75bb5	-0.0065722116
218	0x3b40d7d8	0.0029425528
219	0xbbcdc3fe	-0.0062794676
220	0xbba1e6b1	-0.0049408306
221	0x3bce669c	0.006298853
222	0x3bb2daa4	0.005458193
223	0x3bb62e4d	0.0055597187
224	0x3bc0f173	0.005888158
225	0xbbd3ca72	-0.0064633423
226	0xbc00c0be	-0.007858453
227	0xbb933332	-0.004492187
228	0xbbb7e9bb	-0.0056125796
229	0x3bb4c0eb	0.0055161617
230	0x3bcb1a39	0.0061981943
231	0x3be485b3	0.006973946
232	0x3bd4c7a9	0.006493528
233	0x3be11d6f	0.006869964
234	0x3bd61481	0.006533206
235	0x3be60b63	0.0070204004
236	0x3bec9f5b	0.007221145
237	0x3bef6c79	0.007306632
238	0xbbecb8a9	-0.0072241616
239	0x3bb6393a	0.005561021
240	0xbbe8c7b7	-0.007103886
241	0xbbee6adc	-0.007275922
242	0xbbdb013b	-0.0066834963
243	0xbbe43a89	-0.0069649857
244	0xbbdffc9c	-0.0068355333
245	0xbbcd2411	-0.006260403
246	0xbbf371de	-0.0074293455
247	0xbbdc2180	-0.0067178607
248	0x3bac9701	0.0052670245
249	0x3bd7bd4d	0.0065838457
250	0x3bd040e0	0.00635539
251	0x3bc479d8	0.00599597
252	0x3bf2aa2b	0.0074055395
253	0x3c586f5f	0.013210147
254	0x3c1f9a6e	0.009741409
255	0x3c6c738a	0.0144318435
