models/diabetes/2023_04_30_09_59_43_832940/w1.npy (npy, 19328 bytes, 1 tensors)

array f4 [8, 600]
0	0xb9d94416	-0.00041440193
1	0x3b0b2447	0.002123134
2	0x3b7d5bf5	0.0038659547
3	0xba0f3b9c	-0.00054638996
4	0xb7897cc7	-1.6389777e-05
5	0xbbffb9ff	-0.007804155
6	0xbb81c088	-0.003959719
7	0x3a1dbbcf	0.00060170604
8	0xbb827f53	-0.0039824634
9	0x39a18f76	0.000308152
10	0x3b4de1ce	0.0031415108
11	0x3946669d	0.00018920978
12	0xba4c121f	-0.00077846827
13	0x39f81c8a	0.0004732351
14	0xba455222	-0.00075271924
15	0x3b06004c	0.0020446954
16	0xbaad3f62	-0.0013217742
17	0x39501981	0.00019845927
18	0xbb450df6	-0.0030068136
19	0xb9da1b08	-0.0004160034
20	0x3b07aeaa	0.0020703473
21	0x3a77bebe	0.0009450725
22	0x3a79a91d	0.0009523796
23	0xba74f03d	-0.00093436596
24	0xbb08d438	-0.0020878445
25	0xba5aa02e	-0.00083399087
26	0x3af27ae0	0.0018499754
27	0x3a3af550	0.00071318913
28	0xba4ca0ed	-0.0007805962
29	0xbaed8567	-0.0018121422
30	0xb9d2e1a5	-0.0004022244
31	0x3a664d7c	0.000878535
32	0x398c070b	0.00026708128
33	0x3a897861	0.0010488146
34	0x39f11663	0.00045983781
35	0xba73ab6c	-0.0009295258
36	0x3b114398	0.0022165533
37	0xbaec5f21	-0.0018033722
38	0xbb047b56	-0.0020215116
39	0xba1f0f87	-0.00060676824
40	0xba59647b	-0.0008292866
41	0xba5cdb6f	-0.0008425032
42	0xba6f7678	-0.00091347797
43	0xb7d7847f	-2.5691696e-05
44	0xb95af6c4	-0.00020882027
45	0xb981812d	-0.0002470104
46	0xb91cbbc8	-0.00014947273
47	0xb78886bc	-1.6275204e-05
48	0xb989d472	-0.0002628896
49	0xbaa49c76	-0.0012558836
50	0xba2bd62f	-0.0006555048
51	0x39797488	0.00023789902
52	0xba0b8466	-0.0005322158
53	0xbab5e21e	-0.0013876592
54	0xbb4ff612	-0.0031732363
55	0xbb39b700	-0.0028337836
56	0xbb091e9e	-0.002092279
57	0xba402aab	-0.0007330577
58	0xba99749e	-0.0011707728
59	0x3b899210	0.00419832
60	0xba73563a	-0.0009282563
61	0x39899318	0.0002624027
62	0xbac91fc8	-0.0015344555
63	0x3a4eb863	0.0007885752
64	0xb985d5a2	-0.00025526906
65	0xba124d36	-0.00055809633
66	0xba069d29	-0.0005135113
67	0x3a0cdcb0	0.0005373461
68	0x3a5653c6	0.00081759354
69	0xbbb42d91	-0.005498596
70	0xbab8eb4c	-0.001410821
71	0xb9807269	-0.00024499305
72	0xb2ba4b2f	-2.168744e-08
73	0x39979e05	0.00028918698
74	0xba5ccca2	-0.00084228266
75	0x3b62c39d	0.0034601458
76	0x3a15003b	0.0005683933
77	0xbb528db0	-0.003212791
78	0x3b4af3ce	0.0030968073
79	0x3b400d9a	0.0029304982
80	0xbb1e74a9	-0.0024178422
81	0x3b95bece	0.004569865
82	0xbaa4abb4	-0.0012563379
83	0xbb292a3f	-0.0025812534
84	0x3a89ba64	0.0010507819
85	0xbb2fe4e9	-0.0026839322
86	0xbab4d1c4	-0.0013795425
87	0x3c0500bb	0.00811785
88	0x3ac5e09d	0.0015096847
89	0x3bd0a6d3	0.0063675432
90	0xbb1c2620	-0.0023826435
91	0xbb07c9c3	-0.0020719625
92	0xbb0162a3	-0.001974263
93	0xba5892c7	-0.00082616176
94	0xbb0bcb61	-0.002133094
95	0xbacb4983	-0.0015509579
96	0xbbcec671	-0.006310277
97	0xbbc4e569	-0.006008793
98	0x3b7623f9	0.0037558062
99	0x382a6bac	4.0631436e-05
100	0x3b7a83b4	0.0038225474
101	0xbaab5e26	-0.0013074323
102	0xbb938328	-0.004501719
103	0xb9effe45	-0.00045775078
104	0xbb461fdc	-0.0030231392
105	0x39a85ada	0.00032111147
106	0x3a0762dc	0.00051645725
107	0xba981374	-0.0011602477
108	0xbb910e18	-0.004426729
109	0x39f1fbfe	0.0004615485
110	0xbb1c6c53	-0.0023868277
111	0xbbb14830	-0.0054102167
112	0x3ba9299f	0.0051624323
113	0xbb019537	-0.0019772777
114	0xba1f108b	-0.0006067834
115	0xba29795a	-0.0006464921
116	0x37f4da93	2.9188848e-05
117	0x399b364b	0.00029604355
118	0xb95f2b40	-0.00021283049
119	0x3a6f4bdc	0.00091284304
120	0x3b14b3b1	0.0022690112
121	0x3be0298c	0.0068408903
122	0x39de9363	0.0004245295
123	0x3ae5cf60	0.0017533116
124	0x3914a87e	0.00014177148
125	0x398702ca	0.00025751285
126	0xba02b617	-0.000498624
127	0x3ac2f7b6	0.0014874849
128	0x3b57a24c	0.0032903133
129	0x3b02979c	0.0019926792
130	0x3b5f2d77	0.0034054199
131	0xba9e3a4a	-0.0012071815
132	0xbb4b6130	-0.003103327
133	0x3b8ce806	0.0043001203
134	0x3a714d4f	0.000920494
135	0x3981b14d	0.00024736897
136	0xb855bdbd	-5.0959865e-05
137	0x3a358031	0.0006923704
138	0xbac4750c	-0.0014988496
139	0xba1041f2	-0.00055029907
140	0x3a4b1602	0.0007747115
141	0x382d89d5	4.137478e-05
142	0xba4daeb9	-0.0007846165
143	0xb9c980e6	-0.00038433744
144	0xbb51e31c	-0.0032026237
145	0xb9ce8b4b	-0.00039395163
146	0x3abcd77d	0.0014407482
147	0xba75e1ef	-0.0009379675
148	0xbb6ea5d5	-0.0036414762
149	0xbb9c44be	-0.004768937
150	0xbb0a644d	-0.0021116913
151	0x3b62773f	0.003455594
152	0x3b4a0479	0.003082542
153	0x39b69b8e	0.00034829642
154	0x39d07862	0.00039762544
155	0xbbe04258	-0.0068438463
156	0xbb7311f2	-0.0037089554
157	0x3a89f396	0.0010524865
158	0xbadf0078	-0.001701369
159	0xb7891051	-1.633927e-05
160	0x3b7bf361	0.0038444626
161	0xba9eaf2c	-0.0012106649
162	0x3987750d	0.00025836416
163	0xbb93a1ac	-0.004505357
164	0x3ac7adb9	0.0015234269
165	0x3b3db122	0.002894469
166	0xba6d76ab	-0.00090585154
167	0x399fd129	0.0003048268
168	0x39addd88	0.00033162185
169	0xbb388c5b	-0.002815983
170	0x3b2d5291	0.0026446918
171	0x3b0dacfd	0.0021618002
172	0xb8eb621a	-0.00011223946
173	0xbb3141af	-0.0027047207
174	0xba8e92c2	-0.0010877477
175	0xbac4cdd4	-0.0015014955
176	0x3ad73edd	0.0016421933
177	0x3a496715	0.0007682902
178	0xba85a9e7	-0.001019773
179	0xba852725	-0.0010158761
180	0xbac0f39c	-0.0014721039
181	0x3a97976a	0.0011565511
182	0x3acf3801	0.0015809537
183	0xba1c4985	-0.0005961883
184	0x3a6acda8	0.0008957037
185	0x3a134900	0.0005618483
186	0x3a6072dc	0.0008562037
187	0xbb0ddaed	-0.0021645383
188	0xb92169e4	-0.00015393604
189	0xba8ee2b7	-0.0010901307
190	0xb9d2fd66	-0.00040243118
191	0xba8e958f	-0.0010878312
192	0xba1cfbea	-0.0005988466
193	0xb90eda69	-0.0001362354
194	0xb99bd92d	-0.00029725712
195	0x3802a9a7	3.1152416e-05
196	0xb7ce1e56	-2.457124e-05
197	0xba35ef15	-0.0006940228
198	0xba82b2bc	-0.000997148
199	0xbaa478af	-0.0012548174
200	0xba28704a	-0.0006425424
201	0xb9011d51	-0.0001231332
202	0x3aa2d6f3	0.0012423679
203	0x38a105f0	7.678184e-05
204	0xbba0c7aa	-0.0049066143
205	0xbae55140	-0.0017495528
206	0xbb100737	-0.0021976957
207	0x3ad296d5	0.001606668
208	0xbbfe12f0	-0.0077537224
209	0x3bb881ae	0.0056306934
210	0xba5751a5	-0.0008213765
211	0xb94f377b	-0.00019761726
212	0xb708ed77	-8.161521e-06
213	0x3a4ab03e	0.00077319506
214	0xba9d3285	-0.0011993205
215	0x3acb9cac	0.0015534363
216	0x39965837	0.00028675955
217	0x39c3d0c8	0.00037348852
218	0x39ef7b8d	0.00045677685
219	0xbb8c6d06	-0.0042854575
220	0xba7f28a4	-0.0009733534
221	0xb98c98c5	-0.00026816703
222	0xb2ba4b2f	-2.168744e-08
223	0x3a736506	0.0009284768
224	0x3afcd7bf	0.0019290372
225	0xb9df5ac7	-0.0004260151
226	0xbb787700	-0.0037912726
227	0xbb7971f0	-0.0038062297
228	0xb9b5ce75	-0.00034676833
229	0xb961f5cf	-0.00021549243
230	0x3b1280dc	0.0022354638
231	0x3b472f5f	0.0030393226
232	0xba2868ab	-0.0006424288
233	0xbad64db0	-0.0016350057
234	0x3bc3a8a6	0.005971032
235	0x3b3683c3	0.0027849532
236	0x3a7c8060	0.00096321665
237	0x3a9bd9e7	0.0011890501
238	0x39c9bab1	0.00038476803
239	0xbb6bfd44	-0.0036009112
240	0x3a65f63d	0.0008772349
241	0xb87cbdcd	-6.0258248e-05
242	0xb9aec367	-0.00033333452
243	0xbb733205	-0.0037108671
244	0x3aaaf935	0.001304424
245	0x3a94e0f2	0.0011358543
246	0x3a64b7c8	0.00087248953
247	0x3a757e0e	0.0009364792
248	0xba356285	-0.00069192826
249	0xbae0107c	-0.0017094756
250	0xbaa55f0a	-0.0012616825
251	0xba2caeda	-0.0006587334
252	0x3a11338b	0.00055389915
253	0x397f012a	0.00024319129
254	0xba87cb75	-0.0010360318
255	0x3ab2940f	0.0013624447
