models/adult/2023_04_28_17_55_20_959372/w2.npy (npy, 528 bytes, 1 tensors)

array f4 [2, 50]
0	0x39128690	0.00013973773
1	0x3908b068	0.00013035687
2	0x3e41afb3	0.1891468
3	0xba08656f	-0.0005203103
4	0xba33d715	-0.0006860358
5	0x38153917	3.5577537e-05
6	0xb638135b	-2.7429403e-06
7	0xbf4b04e9	-0.7930437
8	0xbb112f30	-0.002215337
9	0x3e9730fc	0.2952956
10	0xbba40d08	-0.0050064363
11	0x38aef34b	8.3422834e-05
12	0xbbe8f09c	-0.007108761
13	0xb9df4567	-0.00042585583
14	0x39de4cca	0.00042400352
15	0x38858a76	6.3677246e-05
16	0xb9adb84e	-0.0003313445
17	0xbb7d76cf	-0.0038675552
18	0x3e3b6b7a	0.18302718
19	0xb7c48389	-2.3426272e-05
20	0x3ab3b7c0	0.0013711378
21	0x3ba22e46	0.004949364
22	0x3b3929bc	0.0028253635
23	0xba713222	-0.0009200891
24	0xbe78c92a	-0.24295488
25	0x39c3ced4	0.00037347397
26	0xba4656e0	-0.0007566046
27	0x36632069	3.38445e-06
28	0xb823f9f9	-3.9095034e-05
29	0x3c8a9ac9	0.01691951
30	0xb6e4b306	-6.8157706e-06
31	0x3a0d20fa	0.0005383637
32	0x3a06f6b2	0.0005148455
33	0x3b79ec80	0.003813535
34	0x39f65ecd	0.00046991408
35	0xbe05992d	-0.13046713
36	0x3e2e874d	0.170438
37	0xbf0168ed	-0.5055073
38	0x3965668d	0.00021877345
39	0x3b317d63	0.0027082793
40	0x3942e7a3	0.00018587573
41	0xba74f2ee	-0.00093440607
42	0xbd388c0c	-0.045055434
43	0x3a42f311	0.00074367324
44	0x3a447c27	0.0007495307
45	0xba92acbf	-0.0011190398
46	0x39633fbc	0.0002167215
47	0xbb8fb10f	-0.0043851207
48	0x3e3aae4d	0.18230553
49	0xbb0dcfd7	-0.0021638775
50	0x3912868f	0.00013973772
51	0x3908b060	0.00013035676
52	0xbe587f4a	-0.21142307
53	0xba0865b0	-0.0005203141
54	0xba3459a4	-0.00068798126
55	0x3815391a	3.557755e-05
56	0xb638135d	-2.7429408e-06
57	0x3f4b2d01	0.79365546
58	0xbb0eea24	-0.002180704
59	0xbe96db82	-0.29464346
60	0x3bc1d45f	0.005915209
61	0x38aef357	8.342292e-05
62	0xbbe8efdd	-0.007108672
63	0xb9df456a	-0.00042585592
64	0x39de4ccc	0.00042400358
65	0x38858a77	6.367725e-05
66	0xb9adb85d	-0.00033134493
67	0xbb7d76d5	-0.0038675566
68	0xbe2bfbe0	-0.16795301
69	0xb7c48389	-2.3426272e-05
70	0x3ab3b7b8	0.0013711369
71	0x3ba22e3d	0.0049493597
72	0x3b3a96cb	0.0028471227
73	0xba71323d	-0.00092009065
74	0x3e87698a	0.26447707
75	0x39553523	0.00020333058
76	0xba4656e3	-0.0007566048
77	0x3663206b	3.3844506e-06
78	0xb823f9fb	-3.909504e-05
79	0x3c5fda9d	0.013662961
80	0xb6e4b2fc	-6.815766e-06
81	0x3a0d20fa	0.0005383637
82	0x3a06f875	0.00051487173
83	0x3b79ec3c	0.0038135191
84	0x39f65ecf	0.00046991414
85	0x3dddfa10	0.10838711
86	0xbe38dca3	-0.18052916
87	0x3ee2eba3	0.44320402
88	0x396566a9	0.00021877386
89	0x3b317d46	0.0027082725
90	0x3942e7f4	0.00018587691
91	0xba74f2fc	-0.0009344069
92	0xbd388c0e	-0.04505544
93	0x3a42f31b	0.0007436738
94	0x3a447c28	0.00074953074
95	0xba92acb5	-0.0011190387
96	0x39633fc3	0.0002167216
97	0xbb8fb16e	-0.004385165
98	0xbe5055f8	-0.20345294
99	0xbb0d9c60	-0.00216081
