res/adult/2023_04_28_17_55_20_959372/b1.npy (npy, 528 bytes, 1 tensors)

array f8 [50]
0	0xbdb8b636a0000000	-2.247522480625097e-11
1	0xbdb550c8a0000000	-1.9386390062714476e-11
2	0x3ff1247ca0000000	1.0714079141616821
3	0x3e444c8540000000	9.45241573901967e-09
4	0x3efa63efe0000000	2.5167826606775634e-05
5	0xbd849c6440000000	-2.343188577197397e-12
6	0x3d52389d20000000	2.5893808039585686e-13
7	0xbfe4fedc00000000	-0.6561107635498047
8	0x3f35b973a0000000	0.00033148835063911974
9	0x3fd9a42a00000000	0.40064477920532227
10	0x3f80938760000000	0.008093888871371746
11	0xbdc8533720000000	-4.424702618188725e-11
12	0xbea7678d00000000	-6.975083124416415e-07
13	0x3deac5d820000000	1.9479796942167837e-10
14	0xbddd5cbf00000000	-1.0681938666934343e-10
15	0xbdb44182c0000000	-1.842263494533647e-11
16	0x3de9c27340000000	1.8742554730444283e-10
17	0x3e2882e9a0000000	2.8534998808282808e-09
18	0x3fe77b58a0000000	0.7338069081306458
19	0xbd86be9fc0000000	-2.585764501822352e-12
20	0xbdeaac89e0000000	-1.9407873919075058e-10
21	0xbe0259bf60000000	-5.340720643509655e-10
22	0xbf99e843a0000000	-0.025300079956650734
23	0x3e04c1ba20000000	6.041008249191293e-10
24	0xbfcd603600000000	-0.22949862480163574
25	0x3f6c0bf780000000	0.003423674963414669
26	0x3def024f00000000	2.2562030022044155e-10
27	0xbd61ae7f40000000	-5.025421268359254e-13
28	0xbda8a46080000000	-1.1205928546198507e-11
29	0x3fbdbd7c00000000	0.11617255210876465
30	0x3d7e957120000000	1.73848533225468e-12
31	0x3e20e0fd60000000	1.964958640243708e-09
32	0xbe7cd0a680000000	-1.0734439115367422e-07
33	0x3e453be7c0000000	9.887854091061854e-09
34	0xbdea5a8340000000	-1.9174742349470364e-10
35	0xbfd7fdad00000000	-0.37485814094543457
36	0x3f8fb7a500000000	0.01548699289560318
37	0xbfbb26fe80000000	-0.10606375336647034
38	0xbde61785c0000000	-1.6073961606188902e-10
39	0x3e278065a0000000	2.735940585196772e-09
40	0xbe255eb420000000	-2.4877879756246557e-09
41	0x3e0bae4f80000000	8.056202371875543e-10
42	0x3e68ed5b60000000	4.6430482569803644e-08
43	0xbe00564ca0000000	-4.75472383687503e-10
44	0xbdf8481120000000	-3.5334249415264196e-10
45	0xbe18b5ac00000000	-1.4382912638666312e-09
46	0xbdd6fe8e80000000	-8.365300119272945e-11
47	0xbebf62dc80000000	-1.8707619346969295e-06
48	0x3fea0228a0000000	0.812763512134552
49	0x3f09b0b2c0000000	4.9000220315065235e-05
