res/adult/2023_04_28_17_55_20_959372/w1.npy (npy, 115328 bytes, 1 tensors)

array f4 [50, 576]
7.86634e-16 9.662433e-16 5.3200296e-17 4.9363677e-17 1.5571667e-16 -9.690766e-16 9.039705e-16 -1.1727487e-15
-3.2231073e-16 -9.34053e-17 -6.821899e-17 -3.4179026e-16 -4.1886504e-17 8.1598554e-16 1.4444756e-16 -3.839702e-16
8.426241e-16 -7.781057e-16 -9.53939e-17 1.0522932e-16 -1.8113204e-16 2.8055938e-17 6.5762513e-18 6.563022e-17
2.6027668e-17 2.3418425e-16 -3.7497692e-17 4.0292715e-17 -3.7127773e-17 -1.0100806e-17 4.782424e-16 4.692793e-16
1.1792498e-17 9.766007e-17 -9.332641e-16 3.7442663e-16 4.4064668e-16 8.5272204e-16 5.7971517e-16 2.0583157e-17
-6.9036685e-16 5.671751e-16 -6.770526e-16 -9.375992e-16 -4.713579e-16 2.2628342e-16 -7.6040523e-17 -5.80736e-16
-3.699604e-17 1.7742618e-16 4.8242444e-16 -3.4559516e-16 -3.42301e-17 4.74974e-16 -5.329698e-17 -1.15746e-16
1.402848e-16 -1.5051957e-17 1.24422845e-17 5.4356817e-17 1.4764074e-16 2.2821455e-16 2.515328e-16 -9.6718834e-17
-3.2789734e-17 6.6954863e-16 1.5274143e-16 2.4994232e-16 -2.2661427e-17 6.247286e-16 -1.2779969e-15 -4.4115403e-16
1.0892928e-15 9.124492e-16 5.9754887e-16 3.8115603e-17 -5.9072353e-16 -9.258459e-17 1.4093628e-16 -8.1948595e-16
-1.0369213e-15 1.05025706e-16 8.434831e-17 -5.1015217e-16 3.517852e-17 1.0812833e-17 5.9756523e-16 -3.1442668e-16
-6.8065265e-17 -5.791159e-17 -4.6931184e-17 -1.2707576e-16 -4.1081545e-17 4.353956e-18 1.0404215e-17 5.3836577e-17
1.4058666e-16 2.6444075e-16 2.2670117e-16 -1.567632e-18 -7.4006447e-17 6.356152e-16 5.980654e-16 -3.6256284e-16
-3.1566655e-17 2.5533575e-16 -1.1419155e-15 -3.3146337e-16 7.5736413e-16 2.8984324e-16 -2.6492562e-16 5.440694e-17
-1.6287664e-16 9.760213e-16 -7.9808085e-16 6.536822e-16 -7.264065e-16 -2.0799969e-16 8.918208e-16 4.820368e-16
-2.2988517e-16 -1.0763346e-15 -6.052585e-16 3.717338e-16 -9.290027e-16 8.3964073e-16 5.696029e-17 -1.2915222e-16
2.0904166e-16 -2.1881162e-17 1.1146514e-16 1.8515943e-16 2.59693e-17 -2.1675773e-16 2.9251598e-17 -5.774561e-17
7.141326e-18 -3.8629043e-17 -4.0498678e-16 -9.127371e-17 3.3295287e-17 1.4179874e-17 1.769565e-15 4.3288418e-16
4.5267924e-16 -1.2622493e-15 -1.1830029e-16 2.7609831e-17 4.707752e-16 1.4820145e-16 -2.5081072e-16 5.4311774e-16
-1.2658624e-16 2.115438e-16 4.733151e-16 -8.1896816e-17 -4.8243185e-16 -3.1749468e-16 -5.596893e-16 6.40348e-16
1.2019689e-17 7.2438655e-16 1.1008152e-16 1.7892825e-17 2.0597028e-16 -4.9075345e-17 1.4060339e-16 1.5953444e-17
-8.641732e-17 -1.8174965e-16 -4.0457622e-17 -3.759031e-18 3.171708e-17 -5.5662775e-16 -1.1529435e-16 1.3962287e-16
-1.3822752e-16 5.747035e-16 1.5489498e-15 -1.9082436e-16 2.8022608e-16 -1.7321132e-16 -6.0639883e-16 5.566074e-18
3.164062e-16 -2.53818e-16 2.3992452e-16 -5.8843384e-16 2.936779e-16 1.0488122e-16 1.5240483e-16 -4.0541474e-16
-4.898874e-16 8.957149e-17 -4.816307e-16 -1.7420287e-16 7.208648e-16 -1.9612279e-16 3.092955e-17 1.6566607e-16
6.596503e-17 1.9503481e-17 1.2781628e-16 6.4370494e-17 -4.205393e-17 -7.7491716e-17 -2.0044336e-16 1.7676651e-17
4.5878444e-17 -5.197257e-16 -1.7184865e-16 2.659299e-16 -6.1010094e-16 4.4993887e-16 4.616711e-16 1.4015972e-15
4.4090452e-16 8.527039e-16 5.795993e-16 1.9901722e-17 -6.889561e-16 5.671743e-16 -5.894277e-16 -5.3561943e-16
-4.0708274e-16 2.6667736e-16 -7.61102e-17 -5.808991e-16 -3.7061043e-17 -4.7189577e-16 4.835183e-16 -6.636391e-16
3.4925534e-18 4.4047246e-16 -5.3335765e-17 -1.1571362e-16 1.4028595e-16 -1.5067136e-17 1.2444777e-17 5.434815e-17
1.4764514e-16 2.282151e-16 2.5153167e-16 -9.6636e-17 -3.2774127e-17 6.694805e-16 -3.1830625e-16 -1.7184475e-17
-1.899415e-16 -3.7995698e-16 -8.05594e-16 -4.2879187e-16 -1.0593676e-15 5.28797e-16 -2.360265e-16 -1.1513655e-16
00000000: 58bb 6226 1640 8b26 d357 7524 58a6 6324
00000010: 7387 3325 9ea8 8ba6 a046 8226 ca02 a9a6
00000020: abcc b9a5 c260 d7a4 624d 9da4 5707 c5a5
00000030: db2a 41a4 1b31 6b26 6589 2625 0058 dda5
00000040: afde 7226 1146 60a6 9ff6 dba4 6da4 f224
00000050: bed4 50a5 9b62 0124 f09e f222 3e55 9724
00000060: 1810 f023 7fff 8625 76ed 2ca4 3ed1 3924
00000070: bd38 2ba4 b553 3aa3 10d8 0926 b342 0726
00000080: 7f88 5923 5530 e124 5e7f 86a6 9ed7 d725
00000090: f903 fe25 c8c7 7526 6e17 2726 9bd8 bd23
000000a0: 15fc 46a6 237a 2326 aa25 43a6 4e1f 87a6
000000b0: 13dc 07a6 8a71 8225 6756 afa4 c162 27a6
000000c0: 379d 2aa4 f78e 4c25 a40c 0b26 d838 c7a5
000000d0: c5db 1da4 e5e6 0826 f8c9 75a4 3072 05a5
000000e0: c4bc 2125 6ed4 8aa3 0785 6523 34ad 7a24
000000f0: db37 2a25 868e 8325 b1ff 9025 b904 dfa4
00000100: 4937 17a4 f8fb 4026 5019 3025 fa14 9025
00000110: c803 d1a3 d610 3426 c32d b8a6 d84e fea5
00000120: d0fb 9c26 6f7f 8326 533b 2c26 f6c6 2f24
00000130: b443 2aa6 4c7c d5a4 0c7d 2225 6433 6ca6
00000140: a56f 95a6 3c2c f224 747e c224 960a 13a6
00000150: 773b 2224 2976 4723 883c 2c26 3041 b5a5
00000160: a4f2 9ca4 f888 85a4 906e 58a4 2582 12a5
00000170: 8774 3da4 f4a1 a022 84ec 3f23 0347 7824
00000180: dc15 2225 9170 9825 30af 8225 7657 e7a1
00000190: b2a5 aaa4 2034 3726 7061 2c26 d500 d1a5
000001a0: 5493 11a4 e830 9325 3f91 a4a6 5c13 bfa5
000001b0: 9c4b 5a26 5015 a725 1fb8 98a5 61e8 7a24
000001c0: b3c8 3ba5 d5a8 8c26 f907 66a6 3c69 3c26
000001d0: 575f 51a6 acce 6fa5 6186 8026 0af0 0a26
000001e0: 1085 84a5 bd1d 9ba6 3274 2ea6 3a4a d625
000001f0: 26e2 85a6 8d02 7226 6c57 8324 02e7 14a5
00000200: 3502 7125 6fd1 c9a3 b482 0025 6b79 5525
00000210: 4786 ef23 97e7 79a5 31e6 0624 fe26 85a4
00000220: f5bb 0323 2025 32a4 8075 e9a5 7d76 d2a4
00000230: 238c 1924 48c9 8223 6d05 ff26 6e8a f925
00000240: d579 0226 c8e8 b5a6 1564 08a5 dfa7 fe23
00000250: 14b1 0726 59dd 2a25 2195 90a5 048b 1c26
00000260: aaf1 11a5 b6e4 7325 7d6c 0826 59d7 bca4
00000270: 300d 0ba6 f205 b7a5 c851 21a6 5891 3826
00000280: 60b9 5d23 4bca 5026 a9d4 fd24 3d08 a523
00000290: b277 6d25 f151 62a4 cc1a 2225 0125 9323
000002a0: c843 c7a4 078b 51a5 ee93 3aa4 0baf 8aa2
000002b0: eb44 1224 e16f 20a6 e3ec 04a5 66f9 2025
000002c0: 905d 1fa5 a2a5 2526 293a df26 6901 5ca5
000002d0: 128a a125 f5b2 47a5 56c8 2ea6 155a cd22
000002e0: 5065 b625 ed50 92a5 9c4e 8a25 c19a 29a6
000002f0: 354b a925 f2d6 f124 f7b5 2f25 a8b4 e9a5
00000300: 4f33 0da6 ad89 ce24 13d2 0aa6 9dd7 48a5
00000310: 6fc6 4f26 3b1d 62a5 2ba3 0e24 feff 3e25
00000320: e11a 9824 4be3 b323 b55c 1325 a26d 9424
00000330: 84f0 41a4 09af b2a4 7018 67a5 d009 a323
00000340: b593 5324 fdcc 15a6 c520 46a5 544c 9925
00000350: 81d9 2fa6 a1af 0126 5111 0526 cffd c926
00000360: 062a fe25 71c6 7526 e10e 2726 9d8f b723
00000370: fd93 46a6 147a 2326 16e4 29a6 bd61 1aa6
00000380: cfaa eaa5 a2ba 9925 887f afa4 ca6e 27a6
00000390: f5e9 2aa4 c303 08a6 5a5d 0b26 ec47 3fa6
000003a0: 3cda 8022 43ea fd25 c2f7 75a4 a268 05a5
000003b0: 1bbd 2125 45f8 8aa3 cc90 6523 f8a2 7a24
000003c0: 2739 2a25 9b8e 8325 86ff 9025 d3d3 dea4
000003d0: dc24 17a4 f1f6 4026 b67d b7a5 b27f 9ea3
000003e0: d6fc 5aa5 c107 dba5 5832 68a6 832e f7a5
000003f0: c4ab 98a6 556a 1826 5d0f 88a5 50be 04a5
