res/house/2023_05_24_15_20_33_904323/b1.npy (npy, 528 bytes, 1 tensors)

array f8 [50]
000000 00 00 00 80 d3 ee 77 3f 00 00 00 80 8e 62 aa bf
       0.005842996761202812 -0.05153317749500275
000010 00 00 00 60 b7 7c d5 3f 00 00 00 60 c7 3d e8 3c
       0.33573707938194275 2.6913275464967397e-15
000020 00 00 00 80 2e 1f de bf 00 00 00 00 46 6b f3 3f
       -0.4706531763076782 1.2136898040771484
000030 00 00 00 60 3e b2 08 3d 00 00 00 e0 27 d5 85 bf
       1.0967344484566054e-14 -0.010660468600690365
000040 00 00 00 a0 1a 09 d4 bf 00 00 00 80 e5 f9 d5 3e
       -0.3130556643009186 5.239524398348294e-06
000050 00 00 00 a0 6b 06 bb 3f 00 00 00 e0 1a d2 c6 bf
       0.10556671768426895 -0.17828689515590668
000060 00 00 00 c0 66 6c 43 3f 00 00 00 e0 8c ca 9e 3e
       0.0005927564343437552 4.5882481458647817e-07
000070 00 00 00 20 59 00 ba be 00 00 00 20 80 ab 80 bf
       -1.5498018228754518e-06 -0.008139611221849918
000080 00 00 00 40 e0 eb 5f 3e 00 00 00 60 33 1f a0 3f
       2.972911161691627e-08 0.03148804232478142
000090 00 00 00 c0 4b 8d d0 3f 00 00 00 a0 e9 a4 8e bf
       0.25862401723861694 -0.014962983317673206
0000a0 00 00 00 00 49 e1 58 3f 00 00 00 00 d6 21 cf bd
       0.0015185559168457985 -5.662909030590413e-11
0000b0 00 00 00 40 a9 6a e0 bf 00 00 00 80 72 2b 24 be
       -0.5130201578140259 -2.3480639654849256e-09
0000c0 00 00 00 80 28 11 51 bf 00 00 00 80 f8 82 85 be
       -0.0010416884906589985 -1.602739416739496e-07
0000d0 00 00 00 80 65 bf e0 3e 00 00 00 a0 1b 12 da 3c
       7.985898264450952e-06 1.4472164591188192e-15
0000e0 00 00 00 c0 34 da 33 3f 00 00 00 00 a6 08 a2 3d
       0.0003029230865649879 8.200815027059605e-12
0000f0 00 00 00 20 d5 e6 e0 3e 00 00 00 80 e2 7c 25 3f
       8.059353604039643e-06 0.00016393914120271802
000100 00 00 00 00 d4 53 76 3d 00 00 00 20 0d 6d 72 bd
       1.2691687978350075e-12 -1.0473957855541838e-12
000110 00 00 00 20 f9 eb 82 bf 00 00 00 e0 75 2a d9 be
       -0.009239145554602146 -6.0000088524247985e-06
000120 00 00 00 a0 36 e6 3c bf 00 00 00 00 ab dd ea 3f
       -0.00044096788042224944 0.8395590782165527
000130 00 00 00 40 aa 66 aa 3d 00 00 00 c0 a3 e6 51 bf
       1.2005800867354033e-11 -0.0010925864335149527
000140 00 00 00 40 04 7c 6e bf 00 00 00 60 0f 32 5a 3f
       -0.0037212450988590717 0.0015988493105396628
000150 00 00 00 c0 69 0e 6a be 00 00 00 c0 58 13 6e 3f
       -4.8533642882375716e-08 0.0036713345907628536
000160 00 00 00 00 9e a3 a2 3f 00 00 00 60 3f 99 84 3e
       0.036404550075531006 1.5347170290169743e-07
000170 00 00 00 e0 5e 79 8c 3f 00 00 00 20 3e ee a4 bd
       0.013903371058404446 -9.518151024290322e-12
000180 00 00 00 e0 4a 30 b0 3e 00 00 00 80 61 37 8d be
       9.64918285717431e-07 -2.1767863245258923e-07
