res/house/2023_05_24_15_20_33_904323/w1.npy (npy, 192128 bytes, 1 tensors)

array f4 [50, 960]
6.654029e-05 -0.00027747115 -0.0003437154 -0.00071758527 0.00025493605 0.00061542453 0.00056318654 0.00065631437
-0.00025945852 0.0003009449 -0.00065281393 0.00092898024 -0.0013078105 8.059454e-05 0.00018664956 0.0010377915
0.00012683106 0.0012412475 0.00014522902 -0.00073763606 -0.0001461565 0.000121446064 0.00019739989 -0.0008408635
0.0020361894 -0.001271733 0.00030112738 -0.00050257 -0.0030933993 -0.00080718857 0.0005673036 0.00048203729
0.0013147194 0.0021617534 -0.0013800255 -0.0021763905 0.0021570136 0.0011858356 0.0010544907 0.0020553032
-0.0016422445 -0.0019070832 -0.0012302789 0.00015684849 -0.00011634615 0.0012519987 0.000623238 -0.0011259845
0.001427357 -0.0009935454 0.0007715648 -4.489194e-05 0.00017658537 -0.00013486114 -0.0005097906 0.00011823115
0.00064034504 -0.0012844701 0.0002624522 -0.0007364382 -0.00015527353 0.000459886 0.0005063367 -0.00095926697
-0.00086248235 -0.00013298423 0.00028899623 0.00069764943 4.6291814e-05 -0.0007355189 -0.001329968 0.0011760065
-0.0010464448 0.0013976414 -0.0009990121 0.000750835 -9.469911e-05 0.00018651613 -9.924581e-05 -0.0005362455
9.867422e-05 0.0006836028 -0.0012516902 0.00026882708 -0.0007557024 -0.00019907298 0.0005258184 0.00049717334
-0.0009687238 -0.00088724354 -0.00014859388 0.00036048787 0.0006760947 6.523562e-05 -0.00076302997 -0.0023232324
0.0017207573 0.0005378772 -0.000117164906 -0.0003258686 -0.0012974818 -0.000639089 -0.0005109716 -0.00030126245
-0.00044336732 0.00037182396 -0.0006937807 -0.00011483184 0.00022587889 0.0002931449 3.5324712e-05 0.0007492128
0.000575015 0.00012591765 -0.00034299496 -0.00012265262 0.0006323087 -0.000954795 -0.00021964307 -0.00025985725
-0.0007894027 -0.00046126288 -9.141924e-05 0.00034315322 -0.0009282707 0.0006689922 0.001034066 0.002507272
0.0010811022 0.0010242595 -0.00014937801 -0.00075717195 0.0005857855 0.00021685706 0.0006923614 -0.002182971
0.0008960605 -0.0006730449 0.0007810224 -0.0014500086 0.0011630404 0.00042260447 -0.001208591 -0.00033535465
-0.0009392883 0.0019793555 -0.00051220524 -0.00072400196 -0.00032110026 0.0023219201 -0.0004597441 -0.0005932687
-0.0014456768 -0.0024145327 0.0011879355 0.001358912 -0.00042973098 -0.0021097912 -0.0019536985 0.0007052787
-0.0009224522 0.00206278 -3.1016236e-05 -0.00015880438 0.001984054 -0.0011594972 -0.00027330386 0.00028351328
-0.00025965789 -0.00042426618 -0.00010072903 0.0007210916 -0.0015820822 0.00054412644 0.0010227688 -0.0006947813
0.00013813876 0.0001828417 -0.000887809 0.0006762698 -3.5801495e-05 0.00047465286 -0.0007858184 0.0005215701
0.00027244727 0.001141036 -0.00069692207 -0.0003348074 -0.0016671409 -0.002242783 -0.00011466521 -0.0002254693
0.00019955586 -0.00022731637 -0.00045560516 -8.617534e-05 0.00071721425 -0.001530533 0.0005460393 0.0010399008
-0.0007036869 0.00010254359 0.00015934692 -0.000856877 0.00074794557 -3.2744156e-05 0.0005040816 -0.0007798484
0.00050798 0.00029657918 0.0010976222 -0.00073779095 -0.00032221904 -0.0016903413 -0.0021900348 0.00012958326
-0.00027004877 0.00046139807 -3.3196295e-05 -0.0008263177 0.00031255386 0.00080594345 0.00012361424 0.00049896224
0.0007301524 -0.0004977699 0.0008178798 0.00085750344 -0.0006455291 -0.00060244754 -0.0005478791 3.53902e-05
0.00017910113 4.196016e-05 0.0003083119 6.943755e-05 -0.0011063863 -0.00067298365 0.0002984596 -0.0010575213
-0.001092251 0.00049488817 0.0008178996 0.00094997237 7.051324e-05 0.0007972322 0.0011834686 -0.0003553253
-0.00019207633 0.00011158205 0.0010731438 -0.0015287544 0.0010441545 -0.00047391374 0.0004991853 0.0003426018
00000000: 8c8b 8b38 8c79 91b9 b334 b4b9 551c 3cba
00000010: f0a8 8539 7154 213a cfa2 133a 830c 2c3a
00000020: ef07 88b9 24c8 9d39 9a21 2bba cf86 733a
00000030: d76a abba dd04 a938 5cb7 4339 8106 883a
00000040: f4fd 0439 5bb1 a23a 9e48 1839 eb5d 41ba
00000050: 9641 19b9 dcb0 fe38 21fd 4e39 656d 5cba
00000060: 9771 053b 47b0 a6ba a2e0 9d39 e7be 03ba
00000070: a1ba 4abb 8299 53ba 1ab7 143a f3b9 fc39
00000080: aa52 ac3a 34ac 0d3b f9e1 b4ba c6a1 0ebb
00000090: af5c 0d3b 0a6e 9b3a d636 8a3a 44b2 063b
000000a0: 9540 d7ba 18f7 f9ba 4f41 a1ba b277 2439
000000b0: ddfe f3b8 1b1a a43a cb60 233a c595 93ba
000000c0: 2716 bb3a da39 82ba d642 4a3a 5b4a 3cb8
000000d0: c629 3939 8369 0db9 78a3 05ba def2 f738
000000e0: d4dc 273a aa5b a8ba bd99 8939 880d 41ba
000000f0: ecd0 22b9 db1c f139 aebb 043a 5177 7bba
00000100: 3618 62ba af71 0bb9 6b84 9739 76e2 363a
00000110: 7529 4238 d6cf 40ba 5252 aeba 3b24 9a3a
00000120: dc28 89ba 1031 b73a 49f1 82ba afd3 443a
00000130: 3399 c6b8 8b93 4339 3022 d0b8 d492 0cba
00000140: 52ef ce38 cf33 333a c10f a4ba 5cf1 8c39
00000150: 541a 46ba 3fbe 50b9 13d7 093a bd54 023a
00000160: f4f1 7dba e895 68ba decf 1bb9 ddff bc39
00000170: f33b 313a 1bcf 8838 1306 48ba 5f41 18bb
00000180: 098b e13a 5400 0d3a 6eb6 f5b8 58d9 aab9
00000190: 4410 aaba 8988 27ba b9f2 05ba c3f2 9db9
000001a0: c173 e8b9 5ef1 c239 d6de 35ba e0d1 f0b8
000001b0: e7d9 6c39 3eb1 9939 9f29 1438 d266 443a
000001c0: 9abc 163a c308 0439 01d4 b3b9 509c 00b9
000001d0: 85c1 253a 354b 7aba fd4f 66b9 733d 88b9
000001e0: ebef 4eba a8d5 f1b9 55b8 bfb8 3fe9 b339
000001f0: 3157 73ba 4e5f 2f3a 7f89 873a 0b51 243b
00000200: c5b3 8d3a 7240 863a 5ba2 1cb9 f37c 46ba
00000210: 668f 193a 2064 6339 967f 353a 2d10 0fbb
00000220: 9ae5 6a3a 476f 30ba 87bd 4c3a 370e beba
00000230: 2971 983a 0391 dd39 9669 9eba 8ad2 afb9
00000240: 923a 76ba 13b8 013b 8345 06ba f3ca 3dba
00000250: 5959 a8b9 5b2b 183b cf09 f1b9 9785 1bba
00000260: dd7c bdba 233d 1ebb 80b4 9b3a 851d b23a
00000270: 844d e1b9 6c44 0abb 9f09 00bb 74e2 383a
00000280: b8d0 71ba b52f 073b 6e17 02b8 ba84 26b9
00000290: e706 023b 45fa 97ba 394a 8fb9 82a4 9439
000002a0: b122 88b9 0b70 deb9 7c3e d3b8 a307 3d3a
000002b0: df5d cfba b5a3 0e3a 6d0e 863a fc21 36ba
000002c0: 57d9 1039 32b9 3f39 dabb 68ba b347 313a
000002d0: 9029 16b8 d4da f839 61ff 4dba fab9 083a
000002e0: 41d7 8e39 d18e 953a a6b1 36ba 1789 afb9
000002f0: f783 daba a8fb 12bb 6a78 f0b8 f46b 6cb9
00000300: de3f 5139 c65b 6eb9 4ade eeb9 09b9 b4b8
00000310: 6f03 3c3a 2a9c c8ba 1424 0f3a 484d 883a
00000320: a177 38ba ac0c d738 5d16 2739 0ba0 60ba
00000330: c711 443a c556 09b8 5824 043a bd6e 4cba
00000340: f629 053a 2f7e 9b39 17de 8f3a 5068 41ba
00000350: 82ef a8b9 718e ddba b086 0fbb bee0 0739
00000360: 5595 8db9 cde7 f139 403c 0bb8 3e9d 58ba
00000370: 45de a339 f345 533a 729e 0139 cacc 023a
00000380: b367 3f3a c67c 02ba fc66 563a 15ca 603a
00000390: b938 29ba 92ed 1dba 8b9f 0fba f06f 1438
000003a0: 18cd 3b39 61fe 2f38 eca4 a139 009f 9138
000003b0: 2a04 91ba 2b6b 30ba 927a 9c39 879c 8aba
000003c0: dd29 8fba 62bb 013a 5068 563a 9107 793a
000003d0: 82e0 9338 59fd 503a 9e1e 9b3a f44a bab9
000003e0: 1968 49b9 2801 ea38 bba8 8c3a 7c60 c8ba
000003f0: 03dc 883a a077 f8b9 c2db 023a 3c9f b339
